…
{'Model_path': None, 'MyMixup_num_layer': 2, 'add_name': '', 'adv_unpre': False, 'arch': 'preactresnet18', 'batch_size': 100, 'cutout': 16, 'data_aug': 1, 'data_dir': 'data/cifar10/', 'dataset': 'cifar10', 'decay': 0.0001, 'dropout': False, 'epochs': 2000, 'evaluate': False, 'gammas': [0.1, 0.1, 0.1], 'initial_channels': 64, 'job_id': '', 'labels_per_class': 5000, 'learning_rate': 0.1, 'manualSeed': None, 'mixup_alpha': 2.0, 'momentum': 0.9, 'ngpu': 1, 'print_freq': 100, 'resume': '', 'root_dir': 'MixMethod', 'schedule': [500, 1000, 1500], 'start_epoch': 0, 'train': 'MixMethod', 'use_cuda': True, 'valid_labels_per_class': 0, 'validate_mix': False, 'workers': 2}
Random Seed: None
python version : 3.6.10 |Anaconda, Inc.| (default, May  8 2020, 02:54:21)  [GCC 7.3.0]
torch  version : 1.2.0
cudnn  version : 7602
=> creating model 'preactresnet18'
=> network :
 PreActResNet(
  (conv1): Conv2d(3, 64, kernel_size=(3, 3), stride=(1, 1), padding=(1, 1), bias=False)
  (layer1): Sequential(
    (0): PreActBlock(
      (bn1): BatchNorm2d(64, eps=1e-05, momentum=0.1, affine=True, track_running_stats=True)
      (conv1): Conv2d(64, 64, kernel_size=(3, 3), stride=(1, 1), padding=(1, 1), bias=False)
      (bn2): BatchNorm2d(64, eps=1e-05, momentum=0.1, affine=True, track_running_stats=True)
      (conv2): Conv2d(64, 64, kernel_size=(3, 3), stride=(1, 1), padding=(1, 1), bias=False)
    )
    (1): PreActBlock(
      (bn1): BatchNorm2d(64, eps=1e-05, momentum=0.1, affine=True, track_running_stats=True)
      (conv1): Conv2d(64, 64, kernel_size=(3, 3), stride=(1, 1), padding=(1, 1), bias=False)
      (bn2): BatchNorm2d(64, eps=1e-05, momentum=0.1, affine=True, track_running_stats=True)
      (conv2): Conv2d(64, 64, kernel_size=(3, 3), stride=(1, 1), padding=(1, 1), bias=False)
    )
  )
  (layer2): Sequential(
    (0): PreActBlock(
      (bn1): BatchNorm2d(64, eps=1e-05, momentum=0.1, affine=True, track_running_stats=True)
      (conv1): Conv2d(64, 128, kernel_size=(3, 3), stride=(2, 2), padding=(1, 1), bias=False)
      (bn2): BatchNorm2d(128, eps=1e-05, momentum=0.1, affine=True, track_running_stats=True)
      (conv2): Conv2d(128, 128, kernel_size=(3, 3), stride=(1, 1), padding=(1, 1), bias=False)
      (shortcut): Sequential(
        (0): Conv2d(64, 128, kernel_size=(1, 1), stride=(2, 2), bias=False)
      )
    )
    (1): PreActBlock(
      (bn1): BatchNorm2d(128, eps=1e-05, momentum=0.1, affine=True, track_running_stats=True)
      (conv1): Conv2d(128, 128, kernel_size=(3, 3), stride=(1, 1), padding=(1, 1), bias=False)
      (bn2): BatchNorm2d(128, eps=1e-05, momentum=0.1, affine=True, track_running_stats=True)
      (conv2): Conv2d(128, 128, kernel_size=(3, 3), stride=(1, 1), padding=(1, 1), bias=False)
    )
  )
  (layer3): Sequential(
    (0): PreActBlock(
      (bn1): BatchNorm2d(128, eps=1e-05, momentum=0.1, affine=True, track_running_stats=True)
      (conv1): Conv2d(128, 256, kernel_size=(3, 3), stride=(2, 2), padding=(1, 1), bias=False)
      (bn2): BatchNorm2d(256, eps=1e-05, momentum=0.1, affine=True, track_running_stats=True)
      (conv2): Conv2d(256, 256, kernel_size=(3, 3), stride=(1, 1), padding=(1, 1), bias=False)
      (shortcut): Sequential(
        (0): Conv2d(128, 256, kernel_size=(1, 1), stride=(2, 2), bias=False)
      )
    )
    (1): PreActBlock(
      (bn1): BatchNorm2d(256, eps=1e-05, momentum=0.1, affine=True, track_running_stats=True)
      (conv1): Conv2d(256, 256, kernel_size=(3, 3), stride=(1, 1), padding=(1, 1), bias=False)
      (bn2): BatchNorm2d(256, eps=1e-05, momentum=0.1, affine=True, track_running_stats=True)
      (conv2): Conv2d(256, 256, kernel_size=(3, 3), stride=(1, 1), padding=(1, 1), bias=False)
    )
  )
  (layer4): Sequential(
    (0): PreActBlock(
      (bn1): BatchNorm2d(256, eps=1e-05, momentum=0.1, affine=True, track_running_stats=True)
      (conv1): Conv2d(256, 512, kernel_size=(3, 3), stride=(2, 2), padding=(1, 1), bias=False)
      (bn2): BatchNorm2d(512, eps=1e-05, momentum=0.1, affine=True, track_running_stats=True)
      (conv2): Conv2d(512, 512, kernel_size=(3, 3), stride=(1, 1), padding=(1, 1), bias=False)
      (shortcut): Sequential(
        (0): Conv2d(256, 512, kernel_size=(1, 1), stride=(2, 2), bias=False)
      )
    )
    (1): PreActBlock(
      (bn1): BatchNorm2d(512, eps=1e-05, momentum=0.1, affine=True, track_running_stats=True)
      (conv1): Conv2d(512, 512, kernel_size=(3, 3), stride=(1, 1), padding=(1, 1), bias=False)
      (bn2): BatchNorm2d(512, eps=1e-05, momentum=0.1, affine=True, track_running_stats=True)
      (conv2): Conv2d(512, 512, kernel_size=(3, 3), stride=(1, 1), padding=(1, 1), bias=False)
    )
  )
  (linear): Linear(in_features=512, out_features=10, bias=True)
)
=> do not use any checkpoint for preactresnet18 model
  **Test** Prec@1 10.000 Prec@5 51.250 Error@1 90.000 Loss: 2.303 

==>>[2020-06-04 13:48:21] [Epoch=000/2000] [Need: 00:00:00] [learning_rate=0.1000] [Best : Accuracy=0.00, Error=100.00]
  Epoch: [000][000/500]   Time 0.449 (0.449)   Data 0.147 (0.147)   Loss 0.3247 (0.3247)   Prec@1 13.000 (13.000)   Prec@5 59.000 (59.000)   [2020-06-04 13:48:22]
…
